…
2026-07-09 20:21:22 | INFO     | dataset | Loading MNIST via Keras...
2026-07-09 20:21:22 | INFO     | dataset | Prepared MNIST -> train=54000, val=6000, test=10000 | shape=(28, 28, 1)
2026-07-09 20:21:22 | INFO     | model | Built CNN with 24 trainable layers
2026-07-09 20:21:22 | INFO     | train | Model: "handwriting_cnn"
+--------------------------------------------------------------------------+
| Layer (type)                    | Output Shape           |       Param # |
|---------------------------------+------------------------+---------------|
| image (InputLayer)              | (None, 28, 28, 1)      |             0 |
|---------------------------------+------------------------+---------------|
| normalize (Rescaling)           | (None, 28, 28, 1)      |             0 |
|---------------------------------+------------------------+---------------|
| augmentation (Sequential)       | (None, 28, 28, 1)      |             0 |
|---------------------------------+------------------------+---------------|
| conv0_a (Conv2D)                | (None, 28, 28, 32)     |           320 |
|---------------------------------+------------------------+---------------|
| conv0_b (Conv2D)                | (None, 28, 28, 32)     |         9,248 |
|---------------------------------+------------------------+---------------|
| bn0 (BatchNormalization)        | (None, 28, 28, 32)     |           128 |
|---------------------------------+------------------------+---------------|
| pool0 (MaxPooling2D)            | (None, 14, 14, 32)     |             0 |
|---------------------------------+------------------------+---------------|
| drop0 (Dropout)                 | (None, 14, 14, 32)     |             0 |
|---------------------------------+------------------------+---------------|
| conv1_a (Conv2D)                | (None, 14, 14, 64)     |        18,496 |
|---------------------------------+------------------------+---------------|
| conv1_b (Conv2D)                | (None, 14, 14, 64)     |        36,928 |
|---------------------------------+------------------------+---------------|
| bn1 (BatchNormalization)        | (None, 14, 14, 64)     |           256 |
|---------------------------------+------------------------+---------------|
| pool1 (MaxPooling2D)            | (None, 7, 7, 64)       |             0 |
|---------------------------------+------------------------+---------------|
| drop1 (Dropout)                 | (None, 7, 7, 64)       |             0 |
|---------------------------------+------------------------+---------------|
| conv2_a (Conv2D)                | (None, 7, 7, 128)      |        73,856 |
|---------------------------------+------------------------+---------------|
| conv2_b (Conv2D)                | (None, 7, 7, 128)      |       147,584 |
|---------------------------------+------------------------+---------------|
| bn2 (BatchNormalization)        | (None, 7, 7, 128)      |           512 |
|---------------------------------+------------------------+---------------|
| pool2 (MaxPooling2D)            | (None, 3, 3, 128)      |             0 |
|---------------------------------+------------------------+---------------|
| drop2 (Dropout)                 | (None, 3, 3, 128)      |             0 |
|---------------------------------+------------------------+---------------|
| gap (GlobalAveragePooling2D)    | (None, 128)            |             0 |
|---------------------------------+------------------------+---------------|
| fc (Dense)                      | (None, 128)            |        16,512 |
|---------------------------------+------------------------+---------------|
| bn_fc (BatchNormalization)      | (None, 128)            |           512 |
|---------------------------------+------------------------+---------------|
| drop_fc (Dropout)               | (None, 128)            |             0 |
|---------------------------------+------------------------+---------------|
| predictions (Dense)             | (None, 10)             |         1,290 |
+--------------------------------------------------------------------------+
 Total params: 305,642 (1.17 MB)
 Trainable params: 304,938 (1.16 MB)
 Non-trainable params: 704 (2.75 KB)

Epoch 1/20

Epoch 1: val_accuracy improved from None to 0.80500, saving model to D:\Anshuman\CodeAlpha-ML-Internship\Task-3-Handwritten-Recognition\models\best_model.keras
422/422 - 26s - 60ms/step - accuracy: 0.8519 - loss: 0.4676 - val_accuracy: 0.8050 - val_loss: 0.5751 - learning_rate: 1.0000e-03
…
